{"modelTopology":{"class_name":"Sequential","config":{"name":"sequential_1","layers":[{"class_name":"LSTM","config":{"name":"lstm_LSTM1","trainable":true,"batch_input_shape":[null,30,118],"dtype":"float32","units":118,"activation":"selu","recurrent_activation":"hard_sigmoid","use_bias":true,"kernel_initializer":{"class_name":"VarianceScaling","config":{"scale":1,"mode":"fan_avg","distribution":"normal","seed":null}},"recurrent_initializer":{"class_name":"Orthogonal","config":{"gain":1,"seed":null}},"bias_initializer":{"class_name":"Zeros","config":{}},"unit_forget_bias":null,"kernel_regularizer":null,"recurrent_regularizer":null,"bias_regularizer":null,"activity_regularizer":null,"kernel_constraint":null,"recurrent_constraint":null,"bias_constraint":null,"dropout":0,"recurrent_dropout":0,"implementation":null,"return_sequences":false,"return_state":false,"go_backwards":false,"stateful":false,"unroll":false}},{"class_name":"Dense","config":{"units":118,"activation":"sigmoid","use_bias":true,"kernel_initializer":{"class_name":"VarianceScaling","config":{"scale":1,"mode":"fan_avg","distribution":"normal","seed":null}},"bias_initializer":{"class_name":"Zeros","config":{}},"kernel_regularizer":null,"bias_regularizer":null,"activity_regularizer":null,"kernel_constraint":null,"bias_constraint":null,"name":"dense_Dense1","trainable":true}}]},"keras_version":"tfjs-layers 3.6.0","backend":"tensor_flow.js"},"weightsManifest":[{"paths":["weights.bin"],"weights":[{"name":"lstm_LSTM1/kernel","shape":[118,472],"dtype":"float32"},{"name":"lstm_LSTM1/recurrent_kernel","shape":[118,472],"dtype":"float32"},{"name":"lstm_LSTM1/bias","shape":[472],"dtype":"float32"},{"name":"dense_Dense1/kernel","shape":[118,118],"dtype":"float32"},{"name":"dense_Dense1/bias","shape":[118],"dtype":"float32"}]}],"format":"layers-model","generatedBy":"TensorFlow.js tfjs-layers v3.6.0","convertedBy":null}